app/src/main/assets/solarproduction.tflite (tflite, 12128 bytes, 5 tensors)

arith.constant f4 [1, 32]
-0.14736967 -0.29247028 -0.34938568 -0.17215575 2.3316264 -0.24974741 -0.21856838 1.828149
-0.3694955 2.1590674 -0.15023679 2.1046565 2.4726539 -0.1515939 2.2011771 2.4793777
2.2869003 2.1298046 -0.11768004 2.0508575 2.1332846 2.2390997 -0.3034447 -0.021907754
-0.37754402 -0.25314152 -0.23473173 -0.2911244 2.2410927 -0.09629713 2.2674177 2.5003033
00000000: 13e8 16be aabe 95be aee2 b2be 9949 30be
00000010: 5e39 1540 c9bd 7fbe 64d0 5fbe c900 ea3f
00000020: 842e bdbe 292e 0a40 acd7 19be b1b2 0640
00000030: f63f 1e40 6e3b 1bbe 16e0 0c40 20ae 1e40
00000040: 935c 1240 b84e 0840 3c02 f1bd 4041 0340
00000050: bc87 0840 694d 0f40 1b5d 9bbe e477 b3bc
00000060: 734d c1be c49b 81be 845d 70be 420e 95be
00000070: 106e 0f40 6e37 c5bd 5f1d 1140 f804 2040

arith.constant1 f4 [32, 64]
0.11185021 -0.08354372 0.15633644 -0.19019318 0.01613045 0.17163138 -0.21919046 -0.005429663
-0.28036168 0.216579 -0.25511873 -0.23179021 -0.12577379 0.08559483 -0.1073246 0.107540056
0.16411798 0.034886863 -0.024450159 -0.05820815 -0.25513664 0.19068198 -0.20272392 0.07788743
0.16282126 -0.023193212 0.022433598 -0.012835839 0.12891038 0.00264951 0.024911892 -0.10321833
0.11105781 -0.15272127 -0.11942255 0.12573363 -0.15234393 -0.19823232 -0.10832815 -0.130523
0.034684904 -0.11487515 -0.23415199 -0.28664452 0.19145732 -0.23876664 -0.033278428 -0.2080244
0.010185022 -0.041677177 -0.018745491 -0.16975315 -0.13091572 0.1622503 -0.021633357 -0.17532875
-0.109191224 0.045844465 -0.047640823 0.12145764 -0.23421526 -0.115013555 -0.11621438 0.12789093
-0.20399605 0.09977151 0.15338016 -0.018082611 0.1520041 0.049186073 -0.13061023 -0.09840267
0.0822216 0.12939288 0.15466939 -0.29410416 -0.06595975 -0.07008014 0.1270862 -0.11262483
-0.16743189 -0.27775556 -0.11000784 0.114519134 -0.03764576 -0.2639488 -0.038839567 0.013746567
0.039358858 -0.27413523 0.066699356 -0.25625932 0.041416436 -0.13811815 -0.14109977 -0.017666796
-0.16843112 -0.044046264 -0.27926028 0.15850426 0.07637077 -0.13129269 0.18195175 0.14057122
0.17680481 -0.06510719 0.091026336 0.0354368 0.101813674 0.1862597 -0.31094494 -0.043741968
0.19894196 -0.13243991 -0.13543524 0.02825562 0.041802764 -0.15914702 -0.05081356 -0.11856502
-0.0011957276 0.11191247 0.11679736 -0.1083582 -0.2874393 -0.24793068 0.119842194 0.049583584
-0.12221799 0.17432287 0.109977156 0.026433967 -0.10614431 0.09282427 -0.28301302 0.075964235
-0.11035876 0.022547783 0.12646319 0.0037686212 -0.20159665 -0.17609958 -0.15235233 0.004469026
0.15051158 0.075038396 -0.2612556 0.06279636 0.0039120005 -0.24599157 0.03437138 0.13649185
0.1227815 -0.15852007 0.14937018 0.04741431 0.14686961 0.14351103 0.121399894 -0.0680944
-0.23603022 0.17944966 -0.15832847 -0.07459061 0.13219844 0.08110029 0.19157884 -0.23747468
-0.1376185 -0.18423471 -0.18522291 -0.09692252 0.11060775 0.061453123 -0.19476333 -0.08391427
-0.0495851 -0.16738543 -0.1352923 -0.15754054 0.026662977 0.06855994 -0.041738577 -0.100092135
0.10132905 -0.14668383 -0.09979194 0.11150729 -0.27554393 -0.19844984 -0.2739455 0.06687282
-0.24842474 0.1093918 -0.15625308 0.056831885 -0.191718 -0.25819314 -0.15999532 0.021542981
0.14761673 -0.1318921 0.1686427 -0.050075255 0.17257826 -0.14020152 0.007383358 -0.045465387
-0.04528606 0.16621384 0.09976019 -0.020434674 -0.04970718 0.106276505 0.009944349 -0.02653111
-0.22609188 0.018227275 0.11757069 -0.16482459 -0.06095296 0.18585457 0.05244628 -0.12272723
0.17072716 0.10481924 0.08748829 -0.19114225 -0.059978817 0.032331392 0.16391556 -0.2071224
0.17646597 -0.064306155 -0.25125784 0.0026248363 -0.26594752 0.11077038 0.01729612 0.04057865
0.020906195 -0.2407597 -0.15243134 -0.18630402 -0.24605769 -0.077592 0.15032852 -0.2598439
0.059430666 0.10145331 -0.1270351 0.045703974 0.12314016 -0.27966613 -0.046852186 0.08082277
00000000: b911 e53d f818 abbd a916 203e 00c2 42be
00000010: 0124 843c 23c0 2f3e 7773 60be 51eb b1bb
00000020: 918b 8fbe e3c6 5d3e ec9e 82be 6a5a 6dbe
00000030: d8ca 00be 584c af3d 00cd dbbd f63d dc3d
00000040: 8b0e 283e 87e5 0e3d b34b c8bc ab6b 6ebd
00000050: 45a1 82be 2342 433e dc96 4fbe 7283 9f3d
00000060: 9eba 263e b1ff bdbc aac6 b73c 694d 52bc
00000070: 1501 043e 67a3 2d3b 0614 cc3c 2264 d3bd
00000080: 4772 e33d f762 1cbe cf93 f4bd 51c0 003e
00000090: 0c00 1cbe 6afd 4abe 26db ddbd d2a7 05be
000000a0: c211 0e3d aa43 ebbd 8ac5 6fbe 12c3 92be
000000b0: 630d 443e 3e7f 74be f64e 08bd 5904 55be
000000c0: 14df 263c b0b5 2abd 2590 99bc c5d3 2dbe
000000d0: c50e 06be f124 263e 7038 b1bc 6189 33be
000000e0: a69f dfbd 68c7 3b3d 0623 43bd c8be f83d
000000f0: 20d6 6fbe 3a8c ebbd ce01 eebd d7f5 023e
00000100: 57e4 50be 0155 cc3d b00f 1d3e fc21 94bc
00000110: f6a6 1b3e 5677 493d b0be 05be 5787 c9bd
00000120: cc63 a83d 917f 043e a761 1e3e d294 96be
00000130: e815 87bd 2d86 8fbd e322 023e d9a7 e6bd
00000140: 4473 2bbe fa35 8ebe ca4b e1bd 0289 ea3d
00000150: 7132 1abd 4c24 87be 3d16 1fbd 4839 613c
00000160: c136 213d 745b 8cbe ac99 883d 6c34 83be
00000170: 48a4 293d d86e 0dbe 757c 10be f5b9 90bc
00000180: 3579 2cbe db69 34bd 34fb 8ebe f14e 223e
00000190: 4768 9c3d 9771 06be 8f51 3a3e e7f1 0f3e
000001a0: 520c 353e eb56 85bd 046c ba3d 2e26 113d
000001b0: b083 d03d ddba 3e3e 2d34 9fbe c72a 33bd
000001c0: 71b7 4b3e 549e 07be 89af 0abe 5478 e73c
000001d0: 6039 2b3d 70f7 22be e121 50bd 38d2 f2bd
000001e0: f6b9 9cba 5d32 e53d 7433 ef3d e7ea ddbd
000001f0: 3e2b 93be 8ae1 7dbe d36f f53d 2818 4b3d
00000200: 6d4d fabd b281 323e b43b e13d 0c8c d83c
00000210: 3062 d9bd a71a be3d 15e7 90be 2393 9b3d
00000220: c603 e2bd 21b6 b83c 917f 013e f9fa 763b
00000230: 5a6f 4ebe 7353 34be 4002 1cbe e870 923b
00000240: b51f 1a3e bbad 993d 4bc3 85be 619b 803d
00000250: 3d30 803b 37e5 7bbe 01c9 0c3d 85c4 0b3e
00000260: de74 fb3d 1653 22be 7ff4 183e 8235 423d
00000270: fd64 163e 8ef4 123e 82a0 f83d 1475 8bbd
00000280: e8b1 71be a7c1 373e dc20 22be f6c2 98bd
00000290: 075f 073e e917 a63d 3e2d 443e 902c 73be
000002a0: ddeb 0cbe 06a8 3cbe 13ab 3dbe 507f c6bd
000002b0: 5186 e23d 45b6 7b3d 0a70 47be 3fdb abbd
000002c0: bf19 4bbd 1667 2bbe 118a 0abe 4f52 21be
000002d0: 516c da3c 2769 8c3d 12f6 2abd 1bfd ccbd
000002e0: 9b85 cf3d 4934 16be b75f ccbd ef5d e43d
000002f0: 1814 8dbe 6f36 4bbe 9642 8cbe 9ef4 883d
00000300: 0e63 7ebe cf08 e03d cf00 20be 8dc8 683d
00000310: b951 44be e431 84be d0d5 23be e87a b03c
00000320: d728 173e b90e 07be acb0 2c3e b61b 4dbd
00000330: 5bb8 303e fd90 0fbe 19f0 f13b ea39 3abd
00000340: e07d 39bd f633 2a3e 124f cc3d 9e66 a7bc
00000350: c299 4bbd 7fa7 d93d 9fed 223c c557 d9bc
00000360: a184 67be 5e51 953c e7c8 f03d c7c7 28be
00000370: d0a9 79bd a950 3e3e e9d1 563d 6a58 fbbd
00000380: 1ad3 2e3e 78ab d63d 102d b33d cbba 43be
00000390: 59ac 75bd ec6d 043d 7bd9 273e e517 54be
000003a0: 7fb3 343e f2b2 83bd dea4 80be 7205 2c3b
000003b0: 462a 88be 95db e23d 98b0 8d3c cc35 263d
000003c0: 7843 ab3c b689 76be f616 1cbe 7bc6 3ebe
000003d0: 8cf6 7bbe 8ee8 9ebd b8ef 193e 420a 85be
000003e0: 926d 733d c1c6 cf3d 7d15 02be 1734 3b3d
000003f0: e930 fc3d 6630 8fbe 14e8 3fbd 6986 a53d

sequential_1/dense_1_2/BiasAdd/ReadVariableOp f4 [32]
-0.032498356 -0.0645223 -0.043508083 -0.04892149 1.7821574 -0.04195736 -0.03793376 1.8386168
-0.050609138 1.860347 -0.054040823 1.9629315 1.7291254 -0.039922137 1.8195896 1.7077857
1.8073019 1.9049476 -0.047999427 1.9513429 1.8872188 1.8308432 -0.032468617 -0.025641037
-0.04906586 -0.04282109 -0.045025334 -0.051557332 1.8141518 -0.055951554 1.7935421 1.7010273
00000000: ff1c 05bd 4524 84bd 8835 32bd e661 48bd
00000010: bc1d e43f 7bdb 2bbd 6e60 1bbd cc57 eb3f
00000020: 874b 4fbd da1f ee3f e959 5dbd 5741 fb3f
00000030: fb53 dd3f 6585 23bd 50e8 e83f b998 da3f
00000040: ab55 e73f 53d5 f33f 0c9b 44bd 9bc5 f93f
00000050: 6390 f13f 1259 ea3f d0fd 04bd 270d d2bc
00000060: 49f9 48bd 2b65 2fbd 7c6c 38bd c82d 53bd
00000070: 2036 e83f 752d 65bd ca92 e53f 43bb d93f

sequential_1/dense_1/BiasAdd/ReadVariableOp f4 [64]
2.6529307 2.531846 2.7323596 2.8235006 2.529978 2.685082 2.8707924 2.820281
2.7266495 2.839897 2.8417695 2.543974 2.718569 2.7399712 2.7605464 2.891013
2.6818485 2.7667933 2.7903593 2.7697327 2.6564913 2.699968 2.8274624 2.6695976
2.7488623 2.7270455 2.7098255 2.7310758 2.6724143 2.8444235 2.698582 2.6752012
2.8370395 2.5581975 2.575157 2.7263649 2.813816 2.7077188 2.7584414 2.842462
2.6713233 2.5486407 2.6067681 2.6124551 2.7780094 2.64148 2.6153631 2.7189844
2.4435575 2.6731384 2.5731947 2.67615 2.793292 2.9099379 2.9284554 2.559227
2.5154026 2.8289928 2.670576 2.892182 2.6577668 2.524203 2.6813831 2.6587462
00000000: 9ec9 2940 c409 2240 fbde 2e40 3cb4 3440
00000010: 29eb 2140 62d8 2b40 10bb 3740 7c7f 3440
00000020: 6d81 2e40 dfc0 3540 8ddf 3540 78d0 2240
00000030: 09fd 2d40 b05b 2f40 cbac 3040 5b06 3940
00000040: 68a3 2b40 2413 3140 3f95 3240 4d43 3140
00000050: f403 2a40 47cc 2c40 25f5 3440 b0da 2a40
00000060: 5ced 2f40 ea87 2e40 c86d 2d40 f2c9 2e40
00000070: d608 2b40 090b 3640 91b5 2c40 7f36 2b40
00000080: 0e92 3540 82b9 2340 5fcf 2440 c37c 2e40
00000090: 9015 3440 444b 2d40 4e8a 3040 e6ea 3540
000000a0: f6f6 2a40 ee1c 2340 4ad5 2640 7732 2740
000000b0: e8ca 3140 020e 2940 1c62 2740 d703 2e40
000000c0: 3f63 1c40 b314 2b40 39af 2440 0b46 2b40
000000d0: 4cc5 3240 6c3c 3a40 d06b 3b40 60ca 2340
000000e0: 5bfc 2040 380e 3540 b8ea 2a40 8319 3940
000000f0: da18 2a40 8b8c 2140 c89b 2b40 e628 2a40

sequential_1/dense_1/MatMul f4 [64, 6]
1.7053156 0.56704783 -1.1421593 0.3942223 1.0565574 -1.3909113 2.2092903 -0.77294105
1.2519436 -0.9349545 1.081694 1.3115733 1.1876782 1.0368409 1.3368131 0.5305731
-1.1726483 -0.87266403 -1.5195745 -1.005572 -0.61818886 0.10602768 0.87559175 -1.5379267
2.2676823 -0.36999017 1.8828591 -1.0342575 0.9431652 1.2485635 0.2645916 -0.7754844
-0.83300835 -0.22216329 1.4890915 1.5757858 -1.3091216 -0.7466055 -1.0963258 -0.41783407
0.9714452 -1.3584416 -1.4191288 -0.21822321 -0.3127219 -0.5569239 -1.219977 0.9179715
1.0859193 1.180058 1.11305 0.3804668 -1.2196815 -0.95134985 -0.5894584 -0.743701
-1.3797947 -0.66334707 0.62538105 -1.5977546 -1.4749389 -0.5208404 0.055456165 -0.8655451
0.59746623 -1.227061 -0.7177358 0.27557245 2.023462 -1.2832311 -1.6121844 1.2476616
-0.97161365 -1.0160959 -1.7275109 0.5652719 1.4154277 1.2690126 0.8658559 -0.76956385
1.344258 -0.9247139 0.51421124 -0.2629176 1.6122022 -0.76651615 -0.45982686 -0.29967555
1.6181178 1.7428708 -1.0542476 -0.74137706 -0.86830693 -0.80229247 0.365372 -1.5189852
-0.30252537 1.2297066 1.343178 1.234037 -0.99525154 -0.8657907 1.0168407 0.7797249
-0.5941239 0.5962325 -1.02082 1.3259468 1.1206095 0.2852598 -1.0162419 0.98292625
-0.9900818 1.3741642 -1.3935528 0.65130776 -1.2591015 0.60667497 -0.7516951 1.1212671
-0.8263401 -0.4460671 -1.5168009 -0.8453416 1.2426966 1.3126727 1.6810644 -0.69250005
1.3102602 -0.6234244 1.1060046 -0.77875006 -1.0806097 -0.75120544 0.76266974 -0.66936076
0.7576308 -0.9993028 0.2053686 0.74421144 1.0640414 1.0735184 0.6437785 -1.0437702
0.84777427 0.6932106 -0.2121362 0.84878004 -1.0089233 1.1725641 -0.6743993 -0.8718132
1.3852413 -0.9546994 0.7818761 0.6386352 0.88762605 0.5774553 -0.9889331 0.80784017
-0.37748852 0.9107872 1.6033406 -0.7672732 -1.273286 -0.7733817 -0.9285955 1.3267404
1.5282944 0.12717745 -0.7304887 0.51847047 -0.8124656 0.92259413 -1.046651 -0.7272898
0.096880496 -0.5507264 0.8543559 -0.5223673 1.2153352 0.7314321 -1.0726794 0.847504
-0.34242797 -1.1661742 0.96339196 0.696552 -1.2674283 0.82533425 0.34701768 1.0588958
-1.4638596 -0.50367606 0.87775826 -0.69754887 0.92388374 -1.1749847 1.9362813 -0.7854625
1.3055403 -1.0755886 0.43546382 1.499325 0.9962348 -1.0408204 1.4430447 -1.2483562
-1.3108066 1.508332 1.7101496 -0.43064684 0.19709627 -1.0023217 0.98594934 -1.0374842
-0.71843815 0.40223667 -1.0467572 1.0148659 0.73242754 1.2733742 -1.3173296 -0.20864306
1.1453812 -0.87837327 -0.5346196 -1.2647194 -1.2187147 -0.7079644 -1.3243392 -0.5411323
0.6193124 -1.3146155 -0.7477685 -0.8398585 0.83935535 -0.8913542 0.41919738 -1.1941804
1.9302205 -0.16116357 1.3596019 -0.9208543 1.0847778 -0.7515706 -1.7637203 -0.7504067
0.5002754 0.31362745 1.2560575 -1.5744071 1.2857056 0.76088744 1.6118449 -1.3987322
00000000: c847 da3f 0c2a 113f 4732 92bf 81d7 c93e
00000010: 463d 873f 6209 b2bf 0365 0d40 77df 45bf
00000020: b03f a03f 2e59 6fbf f374 8a3f a2e1 a73f
00000030: d705 983f 34b7 843f b11c ab3f a4d3 073f
00000040: 5719 96bf e966 5fbf 6b81 c2bf 95b6 80bf
00000050: a041 1ebf 0a25 d93d c826 603f c8da c4bf
00000060: b521 1140 5a6f bdbe 8701 f13f 8d62 84bf
00000070: 4673 713f eed0 9f3f 8d78 873e 2586 46bf
00000080: 0940 55bf c67e 63be 8d9a be3f 59b3 c93f
00000090: 4c91 a7bf 8a21 3fbf 6754 8cbf 59ee d5be
000000a0: a2b0 783f 6ae1 adbf 03a6 b5bf e875 5fbe
000000b0: 161d a0be 9192 0ebf 3528 9cbf 2e00 6b3f
000000c0: 67ff 8a3f 240c 973f 6c78 8e3f 8bcc c23e
000000d0: 861e 9cbf aa8b 73bf bfe6 16bf 3063 3ebf
000000e0: 1d9d b0bf 1dd1 29bf f918 203f 3983 ccbf
000000f0: ccca bcbf cc55 05bf 0126 633d 5d94 5dbf
00000100: 8cf3 183f 5610 9dbf 89bd 37bf d517 8d3e
00000110: 6780 0140 eb40 a4bf 0f5c cebf 60b3 9f3f
00000120: acbb 78bf 6e0f 82bf 141f ddbf a9b5 103f
00000130: bc2c b53f 016f a23f bba8 5d3f 2302 45bf
00000140: a510 ac3f 0dba 6cbf 59a3 033f 239d 86be
00000150: a45c ce3f 673a 44bf 6d6e ebbe 136f 99be
00000160: 7c1e cf3f 6416 df3f 96f1 86bf e3ca 3dbf
00000170: 5d49 5ebf 0a63 4dbf 0a12 bb3e 1b6e c2bf
00000180: 9be4 9abe 0767 9d3f 42ed ab3f edf4 9d3f
00000190: cec8 7ebf 76a4 5dbf d627 823f 0d9c 473f
000001a0: 8118 18bf b1a2 183f 3baa 82bf a0b8 a93f
000001b0: 2270 8f3f 930d 923e 3714 82bf 0ea1 7b3f
000001c0: 0076 7dbf 9de4 af3f f05f b2bf 1bbc 263f
000001d0: 3d2a a1bf 0d4f 1b3f 176f 40bf ae85 8f3f
000001e0: 068b 53bf e862 e4be 8826 c2bf 4f68 58bf
000001f0: af10 9f3f a905 a83f 1e2d d73f af47 31bf
00000200: 9bb6 a73f be98 1fbf 8f91 8d3f 2a5c 47bf
00000210: 6b51 8abf 004f 40bf 533e 433f 3a5b 2bbf
00000220: 18f4 413f 4fd2 7fbf 254c 523e a484 3e3f
00000230: 8232 883f 0d69 893f abce 243f 439a 85bf
00000240: bc07 593f 4076 313f 3b3a 59be a649 593f
00000250: 6624 81bf 9516 963f 6fa5 2cbf 262f 5fbf
00000260: 964f b13f 2e67 74bf 0829 483f 997d 233f
00000270: 763b 633f 1cd4 133f b82a 7dbf 9dce 4e3f
00000280: 2d46 c1be 5a29 693f 443a cd3f 046c 44bf
00000290: 09fb a2bf 58fc 45bf 6fb8 6dbf a1d2 a93f
000002a0: 279f c33f ce3a 023e 4f01 3bbf 7bba 043f
000002b0: bffd 4fbf 212f 6c3f a9f8 85bf aa2f 3abf
000002c0: 4869 c63d 68fc 0cbf 11b7 5a3f ddb9 05bf
000002d0: 1b90 9b3f 223f 3b3f 8f4d 89bf 06f6 583f
000002e0: b852 afbe 3245 95bf dba0 763f 3b51 323f
000002f0: 173b a2bf 1b49 533f 4dac b13e e689 873f
00000300: c05f bbbf eaf0 00bf c4b4 603f 9092 32bf
00000310: a583 6c3f e665 96bf 11d8 f73f 1214 49bf
00000320: f21b a73f e3ac 89bf 1df5 de3e e2e9 bf3f
00000330: 3e09 7f3f 9a39 85bf b0b5 b83f 23ca 9fbf
00000340: 83c8 a7bf 0611 c13f 2fe6 da3f be7d dcbe
00000350: 9bd3 493e 144c 80bf 2d67 7c3f 48cc 84bf
00000360: 90eb 37bf f7f1 cd3e 24fc 85bf 20e7 813f
00000370: 5f80 3b3f edfd a23f 429e a8bf 87a6 55be
00000380: da9b 923f 12dd 60bf d5dc 08bf 53e2 a1bf
00000390: d8fe 9bbf 283d 35bf f283 a9bf a587 0abf
000003a0: 428b 1e3f 5245 a8bf c26d 3fbf f700 57bf
000003b0: fedf 563f ca2f 64bf 0aa1 d63e e7da 98bf
000003c0: 7711 f73f 1008 25be 6f07 ae3f 1bbd 6bbf
000003d0: 00da 8a3f ee66 40bf 96c1 e1bf a71a 40bf
000003e0: 0c12 003f c793 a03e 7ec6 a03f 2c86 c9bf
000003f0: 0092 a43f 85c9 423f ef50 ce3f a809 b3bf
